2023-03-18 16:22:28.382 | INFO     | __main__:main:32 - The patch number of train is 160160
2023-03-18 16:22:28.450 | INFO     | __main__:main:34 - 
FR_UNet(
  (block1_3): block(
    (fuse): feature_fuse(
      (conv11): Conv2d(1, 32, kernel_size=(1, 1), stride=(1, 1), bias=False)
      (conv33): Conv2d(1, 32, kernel_size=(3, 3), stride=(1, 1), padding=(1, 1), bias=False)
      (conv33_di): Conv2d(1, 32, kernel_size=(3, 3), stride=(1, 1), padding=(2, 2), dilation=(2, 2), bias=False)
      (norm): BatchNorm2d(32, eps=1e-05, momentum=0.1, affine=True, track_running_stats=True)
    )
    (conv): conv(
      (conv): Sequential(
        (0): Conv2d(32, 32, kernel_size=(3, 3), stride=(1, 1), padding=(1, 1), bias=False)
        (1): BatchNorm2d(32, eps=1e-05, momentum=0.1, affine=True, track_running_stats=True)
        (2): Dropout2d(p=0.2, inplace=False)
        (3): LeakyReLU(negative_slope=0.1, inplace=True)
        (4): Conv2d(32, 32, kernel_size=(3, 3), stride=(1, 1), padding=(1, 1), bias=False)
        (5): BatchNorm2d(32, eps=1e-05, momentum=0.1, affine=True, track_running_stats=True)
        (6): Dropout2d(p=0.2, inplace=False)
        (7): LeakyReLU(negative_slope=0.1, inplace=True)
      )
      (relu): LeakyReLU(negative_slope=0.1, inplace=True)
    )
    (down): down(
      (down): Sequential(
        (0): Conv2d(32, 64, kernel_size=(2, 2), stride=(2, 2), bias=False)
        (1): BatchNorm2d(64, eps=1e-05, momentum=0.1, affine=True, track_running_stats=True)
        (2): LeakyReLU(negative_slope=0.1, inplace=True)
      )
    )
  )
  (block1_2): block(
    (fuse): feature_fuse(
      (conv11): Conv2d(32, 32, kernel_size=(1, 1), stride=(1, 1), bias=False)
      (conv33): Conv2d(32, 32, kernel_size=(3, 3), stride=(1, 1), padding=(1, 1), bias=False)
      (conv33_di): Conv2d(32, 32, kernel_size=(3, 3), stride=(1, 1), padding=(2, 2), dilation=(2, 2), bias=False)
      (norm): BatchNorm2d(32, eps=1e-05, momentum=0.1, affine=True, track_running_stats=True)
    )
    (conv): conv(
      (conv): Sequential(
        (0): Conv2d(32, 32, kernel_size=(3, 3), stride=(1, 1), padding=(1, 1), bias=False)
        (1): BatchNorm2d(32, eps=1e-05, momentum=0.1, affine=True, track_running_stats=True)
        (2): Dropout2d(p=0.2, inplace=False)
        (3): LeakyReLU(negative_slope=0.1, inplace=True)
        (4): Conv2d(32, 32, kernel_size=(3, 3), stride=(1, 1), padding=(1, 1), bias=False)
        (5): BatchNorm2d(32, eps=1e-05, momentum=0.1, affine=True, track_running_stats=True)
        (6): Dropout2d(p=0.2, inplace=False)
        (7): LeakyReLU(negative_slope=0.1, inplace=True)
      )
      (relu): LeakyReLU(negative_slope=0.1, inplace=True)
    )
    (down): down(
      (down): Sequential(
        (0): Conv2d(32, 64, kernel_size=(2, 2), stride=(2, 2), bias=False)
        (1): BatchNorm2d(64, eps=1e-05, momentum=0.1, affine=True, track_running_stats=True)
        (2): LeakyReLU(negative_slope=0.1, inplace=True)
      )
    )
  )
  (block1_1): block(
    (fuse): feature_fuse(
      (conv11): Conv2d(64, 32, kernel_size=(1, 1), stride=(1, 1), bias=False)
      (conv33): Conv2d(64, 32, kernel_size=(3, 3), stride=(1, 1), padding=(1, 1), bias=False)
      (conv33_di): Conv2d(64, 32, kernel_size=(3, 3), stride=(1, 1), padding=(2, 2), dilation=(2, 2), bias=False)
      (norm): BatchNorm2d(32, eps=1e-05, momentum=0.1, affine=True, track_running_stats=True)
    )
    (conv): conv(
      (conv): Sequential(
        (0): Conv2d(32, 32, kernel_size=(3, 3), stride=(1, 1), padding=(1, 1), bias=False)
        (1): BatchNorm2d(32, eps=1e-05, momentum=0.1, affine=True, track_running_stats=True)
        (2): Dropout2d(p=0.2, inplace=False)
        (3): LeakyReLU(negative_slope=0.1, inplace=True)
        (4): Conv2d(32, 32, kernel_size=(3, 3), stride=(1, 1), padding=(1, 1), bias=False)
        (5): BatchNorm2d(32, eps=1e-05, momentum=0.1, affine=True, track_running_stats=True)
        (6): Dropout2d(p=0.2, inplace=False)
        (7): LeakyReLU(negative_slope=0.1, inplace=True)
      )
      (relu): LeakyReLU(negative_slope=0.1, inplace=True)
    )
    (down): down(
      (down): Sequential(
        (0): Conv2d(32, 64, kernel_size=(2, 2), stride=(2, 2), bias=False)
        (1): BatchNorm2d(64, eps=1e-05, momentum=0.1, affine=True, track_running_stats=True)
        (2): LeakyReLU(negative_slope=0.1, inplace=True)
      )
    )
  )
  (block10): block(
    (fuse): feature_fuse(
      (conv11): Conv2d(64, 32, kernel_size=(1, 1), stride=(1, 1), bias=False)
      (conv33): Conv2d(64, 32, kernel_size=(3, 3), stride=(1, 1), padding=(1, 1), bias=False)
      (conv33_di): Conv2d(64, 32, kernel_size=(3, 3), stride=(1, 1), padding=(2, 2), dilation=(2, 2), bias=False)
      (norm): BatchNorm2d(32, eps=1e-05, momentum=0.1, affine=True, track_running_stats=True)
    )
    (conv): conv(
      (conv): Sequential(
        (0): Conv2d(32, 32, kernel_size=(3, 3), stride=(1, 1), padding=(1, 1), bias=False)
        (1): BatchNorm2d(32, eps=1e-05, momentum=0.1, affine=True, track_running_stats=True)
        (2): Dropout2d(p=0.2, inplace=False)
        (3): LeakyReLU(negative_slope=0.1, inplace=True)
        (4): Conv2d(32, 32, kernel_size=(3, 3), stride=(1, 1), padding=(1, 1), bias=False)
        (5): BatchNorm2d(32, eps=1e-05, momentum=0.1, affine=True, track_running_stats=True)
        (6): Dropout2d(p=0.2, inplace=False)
        (7): LeakyReLU(negative_slope=0.1, inplace=True)
      )
      (relu): LeakyReLU(negative_slope=0.1, inplace=True)
    )
    (down): down(
      (down): Sequential(
        (0): Conv2d(32, 64, kernel_size=(2, 2), stride=(2, 2), bias=False)
        (1): BatchNorm2d(64, eps=1e-05, momentum=0.1, affine=True, track_running_stats=True)
        (2): LeakyReLU(negative_slope=0.1, inplace=True)
      )
    )
  )
  (block11): block(
    (fuse): feature_fuse(
      (conv11): Conv2d(64, 32, kernel_size=(1, 1), stride=(1, 1), bias=False)
      (conv33): Conv2d(64, 32, kernel_size=(3, 3), stride=(1, 1), padding=(1, 1), bias=False)
      (conv33_di): Conv2d(64, 32, kernel_size=(3, 3), stride=(1, 1), padding=(2, 2), dilation=(2, 2), bias=False)
      (norm): BatchNorm2d(32, eps=1e-05, momentum=0.1, affine=True, track_running_stats=True)
    )
    (conv): conv(
      (conv): Sequential(
        (0): Conv2d(32, 32, kernel_size=(3, 3), stride=(1, 1), padding=(1, 1), bias=False)
        (1): BatchNorm2d(32, eps=1e-05, momentum=0.1, affine=True, track_running_stats=True)
        (2): Dropout2d(p=0.2, inplace=False)
        (3): LeakyReLU(negative_slope=0.1, inplace=True)
        (4): Conv2d(32, 32, kernel_size=(3, 3), stride=(1, 1), padding=(1, 1), bias=False)
        (5): BatchNorm2d(32, eps=1e-05, momentum=0.1, affine=True, track_running_stats=True)
        (6): Dropout2d(p=0.2, inplace=False)
        (7): LeakyReLU(negative_slope=0.1, inplace=True)
      )
      (relu): LeakyReLU(negative_slope=0.1, inplace=True)
    )
    (down): down(
      (down): Sequential(
        (0): Conv2d(32, 64, kernel_size=(2, 2), stride=(2, 2), bias=False)
        (1): BatchNorm2d(64, eps=1e-05, momentum=0.1, affine=True, track_running_stats=True)
        (2): LeakyReLU(negative_slope=0.1, inplace=True)
      )
    )
  )
  (block12): block(
    (fuse): feature_fuse(
      (conv11): Conv2d(64, 32, kernel_size=(1, 1), stride=(1, 1), bias=False)
      (conv33): Conv2d(64, 32, kernel_size=(3, 3), stride=(1, 1), padding=(1, 1), bias=False)
      (conv33_di): Conv2d(64, 32, kernel_size=(3, 3), stride=(1, 1), padding=(2, 2), dilation=(2, 2), bias=False)
      (norm): BatchNorm2d(32, eps=1e-05, momentum=0.1, affine=True, track_running_stats=True)
    )
    (conv): conv(
      (conv): Sequential(
        (0): Conv2d(32, 32, kernel_size=(3, 3), stride=(1, 1), padding=(1, 1), bias=False)
        (1): BatchNorm2d(32, eps=1e-05, momentum=0.1, affine=True, track_running_stats=True)
        (2): Dropout2d(p=0.2, inplace=False)
        (3): LeakyReLU(negative_slope=0.1, inplace=True)
        (4): Conv2d(32, 32, kernel_size=(3, 3), stride=(1, 1), padding=(1, 1), bias=False)
        (5): BatchNorm2d(32, eps=1e-05, momentum=0.1, affine=True, track_running_stats=True)
        (6): Dropout2d(p=0.2, inplace=False)
        (7): LeakyReLU(negative_slope=0.1, inplace=True)
      )
      (relu): LeakyReLU(negative_slope=0.1, inplace=True)
    )
  )
  (block13): block(
    (fuse): feature_fuse(
      (conv11): Conv2d(64, 32, kernel_size=(1, 1), stride=(1, 1), bias=False)
      (conv33): Conv2d(64, 32, kernel_size=(3, 3), stride=(1, 1), padding=(1, 1), bias=False)
      (conv33_di): Conv2d(64, 32, kernel_size=(3, 3), stride=(1, 1), padding=(2, 2), dilation=(2, 2), bias=False)
      (norm): BatchNorm2d(32, eps=1e-05, momentum=0.1, affine=True, track_running_stats=True)
    )
    (conv): conv(
      (conv): Sequential(
        (0): Conv2d(32, 32, kernel_size=(3, 3), stride=(1, 1), padding=(1, 1), bias=False)
        (1): BatchNorm2d(32, eps=1e-05, momentum=0.1, affine=True, track_running_stats=True)
        (2): Dropout2d(p=0.2, inplace=False)
        (3): LeakyReLU(negative_slope=0.1, inplace=True)
        (4): Conv2d(32, 32, kernel_size=(3, 3), stride=(1, 1), padding=(1, 1), bias=False)
        (5): BatchNorm2d(32, eps=1e-05, momentum=0.1, affine=True, track_running_stats=True)
        (6): Dropout2d(p=0.2, inplace=False)
        (7): LeakyReLU(negative_slope=0.1, inplace=True)
      )
      (relu): LeakyReLU(negative_slope=0.1, inplace=True)
    )
  )
  (block2_2): block(
    (fuse): feature_fuse(
      (conv11): Conv2d(64, 64, kernel_size=(1, 1), stride=(1, 1), bias=False)
      (conv33): Conv2d(64, 64, kernel_size=(3, 3), stride=(1, 1), padding=(1, 1), bias=False)
      (conv33_di): Conv2d(64, 64, kernel_size=(3, 3), stride=(1, 1), padding=(2, 2), dilation=(2, 2), bias=False)
      (norm): BatchNorm2d(64, eps=1e-05, momentum=0.1, affine=True, track_running_stats=True)
    )
    (conv): conv(
      (conv): Sequential(
        (0): Conv2d(64, 64, kernel_size=(3, 3), stride=(1, 1), padding=(1, 1), bias=False)
        (1): BatchNorm2d(64, eps=1e-05, momentum=0.1, affine=True, track_running_stats=True)
        (2): Dropout2d(p=0.2, inplace=False)
        (3): LeakyReLU(negative_slope=0.1, inplace=True)
        (4): Conv2d(64, 64, kernel_size=(3, 3), stride=(1, 1), padding=(1, 1), bias=False)
        (5): BatchNorm2d(64, eps=1e-05, momentum=0.1, affine=True, track_running_stats=True)
        (6): Dropout2d(p=0.2, inplace=False)
        (7): LeakyReLU(negative_slope=0.1, inplace=True)
      )
      (relu): LeakyReLU(negative_slope=0.1, inplace=True)
    )
    (up): up(
      (up): Sequential(
        (0): ConvTranspose2d(64, 32, kernel_size=(2, 2), stride=(2, 2), bias=False)
        (1): BatchNorm2d(32, eps=1e-05, momentum=0.1, affine=True, track_running_stats=True)
        (2): LeakyReLU(negative_slope=0.1)
      )
    )
    (down): down(
      (down): Sequential(
        (0): Conv2d(64, 128, kernel_size=(2, 2), stride=(2, 2), bias=False)
        (1): BatchNorm2d(128, eps=1e-05, momentum=0.1, affine=True, track_running_stats=True)
        (2): LeakyReLU(negative_slope=0.1, inplace=True)
      )
    )
  )
  (block2_1): block(
    (fuse): feature_fuse(
      (conv11): Conv2d(128, 64, kernel_size=(1, 1), stride=(1, 1), bias=False)
      (conv33): Conv2d(128, 64, kernel_size=(3, 3), stride=(1, 1), padding=(1, 1), bias=False)
      (conv33_di): Conv2d(128, 64, kernel_size=(3, 3), stride=(1, 1), padding=(2, 2), dilation=(2, 2), bias=False)
      (norm): BatchNorm2d(64, eps=1e-05, momentum=0.1, affine=True, track_running_stats=True)
    )
    (conv): conv(
      (conv): Sequential(
        (0): Conv2d(64, 64, kernel_size=(3, 3), stride=(1, 1), padding=(1, 1), bias=False)
        (1): BatchNorm2d(64, eps=1e-05, momentum=0.1, affine=True, track_running_stats=True)
        (2): Dropout2d(p=0.2, inplace=False)
        (3): LeakyReLU(negative_slope=0.1, inplace=True)
        (4): Conv2d(64, 64, kernel_size=(3, 3), stride=(1, 1), padding=(1, 1), bias=False)
        (5): BatchNorm2d(64, eps=1e-05, momentum=0.1, affine=True, track_running_stats=True)
        (6): Dropout2d(p=0.2, inplace=False)
        (7): LeakyReLU(negative_slope=0.1, inplace=True)
      )
      (relu): LeakyReLU(negative_slope=0.1, inplace=True)
    )
    (up): up(
      (up): Sequential(
        (0): ConvTranspose2d(64, 32, kernel_size=(2, 2), stride=(2, 2), bias=False)
        (1): BatchNorm2d(32, eps=1e-05, momentum=0.1, affine=True, track_running_stats=True)
        (2): LeakyReLU(negative_slope=0.1)
      )
    )
    (down): down(
      (down): Sequential(
        (0): Conv2d(64, 128, kernel_size=(2, 2), stride=(2, 2), bias=False)
        (1): BatchNorm2d(128, eps=1e-05, momentum=0.1, affine=True, track_running_stats=True)
        (2): LeakyReLU(negative_slope=0.1, inplace=True)
      )
    )
  )
  (block20): block(
    (fuse): feature_fuse(
      (conv11): Conv2d(192, 64, kernel_size=(1, 1), stride=(1, 1), bias=False)
      (conv33): Conv2d(192, 64, kernel_size=(3, 3), stride=(1, 1), padding=(1, 1), bias=False)
      (conv33_di): Conv2d(192, 64, kernel_size=(3, 3), stride=(1, 1), padding=(2, 2), dilation=(2, 2), bias=False)
      (norm): BatchNorm2d(64, eps=1e-05, momentum=0.1, affine=True, track_running_stats=True)
    )
    (conv): conv(
      (conv): Sequential(
        (0): Conv2d(64, 64, kernel_size=(3, 3), stride=(1, 1), padding=(1, 1), bias=False)
        (1): BatchNorm2d(64, eps=1e-05, momentum=0.1, affine=True, track_running_stats=True)
        (2): Dropout2d(p=0.2, inplace=False)
        (3): LeakyReLU(negative_slope=0.1, inplace=True)
        (4): Conv2d(64, 64, kernel_size=(3, 3), stride=(1, 1), padding=(1, 1), bias=False)
        (5): BatchNorm2d(64, eps=1e-05, momentum=0.1, affine=True, track_running_stats=True)
        (6): Dropout2d(p=0.2, inplace=False)
        (7): LeakyReLU(negative_slope=0.1, inplace=True)
      )
      (relu): LeakyReLU(negative_slope=0.1, inplace=True)
    )
    (up): up(
      (up): Sequential(
        (0): ConvTranspose2d(64, 32, kernel_size=(2, 2), stride=(2, 2), bias=False)
        (1): BatchNorm2d(32, eps=1e-05, momentum=0.1, affine=True, track_running_stats=True)
        (2): LeakyReLU(negative_slope=0.1)
      )
    )
    (down): down(
      (down): Sequential(
        (0): Conv2d(64, 128, kernel_size=(2, 2), stride=(2, 2), bias=False)
        (1): BatchNorm2d(128, eps=1e-05, momentum=0.1, affine=True, track_running_stats=True)
        (2): LeakyReLU(negative_slope=0.1, inplace=True)
      )
    )
  )
  (block21): block(
    (fuse): feature_fuse(
      (conv11): Conv2d(192, 64, kernel_size=(1, 1), stride=(1, 1), bias=False)
      (conv33): Conv2d(192, 64, kernel_size=(3, 3), stride=(1, 1), padding=(1, 1), bias=False)
      (conv33_di): Conv2d(192, 64, kernel_size=(3, 3), stride=(1, 1), padding=(2, 2), dilation=(2, 2), bias=False)
      (norm): BatchNorm2d(64, eps=1e-05, momentum=0.1, affine=True, track_running_stats=True)
    )
    (conv): conv(
      (conv): Sequential(
        (0): Conv2d(64, 64, kernel_size=(3, 3), stride=(1, 1), padding=(1, 1), bias=False)
        (1): BatchNorm2d(64, eps=1e-05, momentum=0.1, affine=True, track_running_stats=True)
        (2): Dropout2d(p=0.2, inplace=False)
        (3): LeakyReLU(negative_slope=0.1, inplace=True)
        (4): Conv2d(64, 64, kernel_size=(3, 3), stride=(1, 1), padding=(1, 1), bias=False)
        (5): BatchNorm2d(64, eps=1e-05, momentum=0.1, affine=True, track_running_stats=True)
        (6): Dropout2d(p=0.2, inplace=False)
        (7): LeakyReLU(negative_slope=0.1, inplace=True)
      )
      (relu): LeakyReLU(negative_slope=0.1, inplace=True)
    )
    (up): up(
      (up): Sequential(
        (0): ConvTranspose2d(64, 32, kernel_size=(2, 2), stride=(2, 2), bias=False)
        (1): BatchNorm2d(32, eps=1e-05, momentum=0.1, affine=True, track_running_stats=True)
        (2): LeakyReLU(negative_slope=0.1)
      )
    )
  )
  (block22): block(
    (fuse): feature_fuse(
      (conv11): Conv2d(192, 64, kernel_size=(1, 1), stride=(1, 1), bias=False)
      (conv33): Conv2d(192, 64, kernel_size=(3, 3), stride=(1, 1), padding=(1, 1), bias=False)
      (conv33_di): Conv2d(192, 64, kernel_size=(3, 3), stride=(1, 1), padding=(2, 2), dilation=(2, 2), bias=False)
      (norm): BatchNorm2d(64, eps=1e-05, momentum=0.1, affine=True, track_running_stats=True)
    )
    (conv): conv(
      (conv): Sequential(
        (0): Conv2d(64, 64, kernel_size=(3, 3), stride=(1, 1), padding=(1, 1), bias=False)
        (1): BatchNorm2d(64, eps=1e-05, momentum=0.1, affine=True, track_running_stats=True)
        (2): Dropout2d(p=0.2, inplace=False)
        (3): LeakyReLU(negative_slope=0.1, inplace=True)
        (4): Conv2d(64, 64, kernel_size=(3, 3), stride=(1, 1), padding=(1, 1), bias=False)
        (5): BatchNorm2d(64, eps=1e-05, momentum=0.1, affine=True, track_running_stats=True)
        (6): Dropout2d(p=0.2, inplace=False)
        (7): LeakyReLU(negative_slope=0.1, inplace=True)
      )
      (relu): LeakyReLU(negative_slope=0.1, inplace=True)
    )
    (up): up(
      (up): Sequential(
        (0): ConvTranspose2d(64, 32, kernel_size=(2, 2), stride=(2, 2), bias=False)
        (1): BatchNorm2d(32, eps=1e-05, momentum=0.1, affine=True, track_running_stats=True)
        (2): LeakyReLU(negative_slope=0.1)
      )
    )
  )
  (block3_1): block(
    (fuse): feature_fuse(
      (conv11): Conv2d(128, 128, kernel_size=(1, 1), stride=(1, 1), bias=False)
      (conv33): Conv2d(128, 128, kernel_size=(3, 3), stride=(1, 1), padding=(1, 1), bias=False)
      (conv33_di): Conv2d(128, 128, kernel_size=(3, 3), stride=(1, 1), padding=(2, 2), dilation=(2, 2), bias=False)
      (norm): BatchNorm2d(128, eps=1e-05, momentum=0.1, affine=True, track_running_stats=True)
    )
    (conv): conv(
      (conv): Sequential(
        (0): Conv2d(128, 128, kernel_size=(3, 3), stride=(1, 1), padding=(1, 1), bias=False)
        (1): BatchNorm2d(128, eps=1e-05, momentum=0.1, affine=True, track_running_stats=True)
        (2): Dropout2d(p=0.2, inplace=False)
        (3): LeakyReLU(negative_slope=0.1, inplace=True)
        (4): Conv2d(128, 128, kernel_size=(3, 3), stride=(1, 1), padding=(1, 1), bias=False)
        (5): BatchNorm2d(128, eps=1e-05, momentum=0.1, affine=True, track_running_stats=True)
        (6): Dropout2d(p=0.2, inplace=False)
        (7): LeakyReLU(negative_slope=0.1, inplace=True)
      )
      (relu): LeakyReLU(negative_slope=0.1, inplace=True)
    )
    (up): up(
      (up): Sequential(
        (0): ConvTranspose2d(128, 64, kernel_size=(2, 2), stride=(2, 2), bias=False)
        (1): BatchNorm2d(64, eps=1e-05, momentum=0.1, affine=True, track_running_stats=True)
        (2): LeakyReLU(negative_slope=0.1)
      )
    )
    (down): down(
      (down): Sequential(
        (0): Conv2d(128, 256, kernel_size=(2, 2), stride=(2, 2), bias=False)
        (1): BatchNorm2d(256, eps=1e-05, momentum=0.1, affine=True, track_running_stats=True)
        (2): LeakyReLU(negative_slope=0.1, inplace=True)
      )
    )
  )
  (block30): block(
    (fuse): feature_fuse(
      (conv11): Conv2d(256, 128, kernel_size=(1, 1), stride=(1, 1), bias=False)
      (conv33): Conv2d(256, 128, kernel_size=(3, 3), stride=(1, 1), padding=(1, 1), bias=False)
      (conv33_di): Conv2d(256, 128, kernel_size=(3, 3), stride=(1, 1), padding=(2, 2), dilation=(2, 2), bias=False)
      (norm): BatchNorm2d(128, eps=1e-05, momentum=0.1, affine=True, track_running_stats=True)
    )
    (conv): conv(
      (conv): Sequential(
        (0): Conv2d(128, 128, kernel_size=(3, 3), stride=(1, 1), padding=(1, 1), bias=False)
        (1): BatchNorm2d(128, eps=1e-05, momentum=0.1, affine=True, track_running_stats=True)
        (2): Dropout2d(p=0.2, inplace=False)
        (3): LeakyReLU(negative_slope=0.1, inplace=True)
        (4): Conv2d(128, 128, kernel_size=(3, 3), stride=(1, 1), padding=(1, 1), bias=False)
        (5): BatchNorm2d(128, eps=1e-05, momentum=0.1, affine=True, track_running_stats=True)
        (6): Dropout2d(p=0.2, inplace=False)
        (7): LeakyReLU(negative_slope=0.1, inplace=True)
      )
      (relu): LeakyReLU(negative_slope=0.1, inplace=True)
    )
    (up): up(
      (up): Sequential(
        (0): ConvTranspose2d(128, 64, kernel_size=(2, 2), stride=(2, 2), bias=False)
        (1): BatchNorm2d(64, eps=1e-05, momentum=0.1, affine=True, track_running_stats=True)
        (2): LeakyReLU(negative_slope=0.1)
      )
    )
  )
  (block31): block(
    (fuse): feature_fuse(
      (conv11): Conv2d(384, 128, kernel_size=(1, 1), stride=(1, 1), bias=False)
      (conv33): Conv2d(384, 128, kernel_size=(3, 3), stride=(1, 1), padding=(1, 1), bias=False)
      (conv33_di): Conv2d(384, 128, kernel_size=(3, 3), stride=(1, 1), padding=(2, 2), dilation=(2, 2), bias=False)
      (norm): BatchNorm2d(128, eps=1e-05, momentum=0.1, affine=True, track_running_stats=True)
    )
    (conv): conv(
      (conv): Sequential(
        (0): Conv2d(128, 128, kernel_size=(3, 3), stride=(1, 1), padding=(1, 1), bias=False)
        (1): BatchNorm2d(128, eps=1e-05, momentum=0.1, affine=True, track_running_stats=True)
        (2): Dropout2d(p=0.2, inplace=False)
        (3): LeakyReLU(negative_slope=0.1, inplace=True)
        (4): Conv2d(128, 128, kernel_size=(3, 3), stride=(1, 1), padding=(1, 1), bias=False)
        (5): BatchNorm2d(128, eps=1e-05, momentum=0.1, affine=True, track_running_stats=True)
        (6): Dropout2d(p=0.2, inplace=False)
        (7): LeakyReLU(negative_slope=0.1, inplace=True)
      )
      (relu): LeakyReLU(negative_slope=0.1, inplace=True)
    )
    (up): up(
      (up): Sequential(
        (0): ConvTranspose2d(128, 64, kernel_size=(2, 2), stride=(2, 2), bias=False)
        (1): BatchNorm2d(64, eps=1e-05, momentum=0.1, affine=True, track_running_stats=True)
        (2): LeakyReLU(negative_slope=0.1)
      )
    )
  )
  (block40): block(
    (fuse): feature_fuse(
      (conv11): Conv2d(256, 256, kernel_size=(1, 1), stride=(1, 1), bias=False)
      (conv33): Conv2d(256, 256, kernel_size=(3, 3), stride=(1, 1), padding=(1, 1), bias=False)
      (conv33_di): Conv2d(256, 256, kernel_size=(3, 3), stride=(1, 1), padding=(2, 2), dilation=(2, 2), bias=False)
      (norm): BatchNorm2d(256, eps=1e-05, momentum=0.1, affine=True, track_running_stats=True)
    )
    (conv): conv(
      (conv): Sequential(
        (0): Conv2d(256, 256, kernel_size=(3, 3), stride=(1, 1), padding=(1, 1), bias=False)
        (1): BatchNorm2d(256, eps=1e-05, momentum=0.1, affine=True, track_running_stats=True)
        (2): Dropout2d(p=0.2, inplace=False)
        (3): LeakyReLU(negative_slope=0.1, inplace=True)
        (4): Conv2d(256, 256, kernel_size=(3, 3), stride=(1, 1), padding=(1, 1), bias=False)
        (5): BatchNorm2d(256, eps=1e-05, momentum=0.1, affine=True, track_running_stats=True)
        (6): Dropout2d(p=0.2, inplace=False)
        (7): LeakyReLU(negative_slope=0.1, inplace=True)
      )
      (relu): LeakyReLU(negative_slope=0.1, inplace=True)
    )
    (up): up(
      (up): Sequential(
        (0): ConvTranspose2d(256, 128, kernel_size=(2, 2), stride=(2, 2), bias=False)
        (1): BatchNorm2d(128, eps=1e-05, momentum=0.1, affine=True, track_running_stats=True)
        (2): LeakyReLU(negative_slope=0.1)
      )
    )
  )
  (final1): Conv2d(32, 1, kernel_size=(1, 1), stride=(1, 1))
  (final2): Conv2d(32, 1, kernel_size=(1, 1), stride=(1, 1))
  (final3): Conv2d(32, 1, kernel_size=(1, 1), stride=(1, 1))
  (final4): Conv2d(32, 1, kernel_size=(1, 1), stride=(1, 1))
  (final5): Conv2d(32, 1, kernel_size=(1, 1), stride=(1, 1))
  (fuse): Conv2d(5, 1, kernel_size=(1, 1), stride=(1, 1))
)

dataset2
  0%|                                                                                                                                  | 0/1251 [00:00<?, ?it/s]2023-03-18 16:22:35.667 | INFO     | __main__:main:32 - The patch number of train is 160160
2023-03-18 16:22:35.758 | INFO     | __main__:main:34 - 
FR_UNet(
  (block1_3): block(
    (fuse): feature_fuse(
      (conv11): Conv2d(1, 32, kernel_size=(1, 1), stride=(1, 1), bias=False)
      (conv33): Conv2d(1, 32, kernel_size=(3, 3), stride=(1, 1), padding=(1, 1), bias=False)
      (conv33_di): Conv2d(1, 32, kernel_size=(3, 3), stride=(1, 1), padding=(2, 2), dilation=(2, 2), bias=False)
      (norm): BatchNorm2d(32, eps=1e-05, momentum=0.1, affine=True, track_running_stats=True)
    )
    (conv): conv(
      (conv): Sequential(
        (0): Conv2d(32, 32, kernel_size=(3, 3), stride=(1, 1), padding=(1, 1), bias=False)
        (1): BatchNorm2d(32, eps=1e-05, momentum=0.1, affine=True, track_running_stats=True)
        (2): Dropout2d(p=0.2, inplace=False)
        (3): LeakyReLU(negative_slope=0.1, inplace=True)
        (4): Conv2d(32, 32, kernel_size=(3, 3), stride=(1, 1), padding=(1, 1), bias=False)
        (5): BatchNorm2d(32, eps=1e-05, momentum=0.1, affine=True, track_running_stats=True)
        (6): Dropout2d(p=0.2, inplace=False)
        (7): LeakyReLU(negative_slope=0.1, inplace=True)
      )
      (relu): LeakyReLU(negative_slope=0.1, inplace=True)
    )
    (down): down(
      (down): Sequential(
        (0): Conv2d(32, 64, kernel_size=(2, 2), stride=(2, 2), bias=False)
        (1): BatchNorm2d(64, eps=1e-05, momentum=0.1, affine=True, track_running_stats=True)
        (2): LeakyReLU(negative_slope=0.1, inplace=True)
      )
    )
  )
  (block1_2): block(
    (fuse): feature_fuse(
      (conv11): Conv2d(32, 32, kernel_size=(1, 1), stride=(1, 1), bias=False)
      (conv33): Conv2d(32, 32, kernel_size=(3, 3), stride=(1, 1), padding=(1, 1), bias=False)
      (conv33_di): Conv2d(32, 32, kernel_size=(3, 3), stride=(1, 1), padding=(2, 2), dilation=(2, 2), bias=False)
      (norm): BatchNorm2d(32, eps=1e-05, momentum=0.1, affine=True, track_running_stats=True)
    )
    (conv): conv(
      (conv): Sequential(
        (0): Conv2d(32, 32, kernel_size=(3, 3), stride=(1, 1), padding=(1, 1), bias=False)
        (1): BatchNorm2d(32, eps=1e-05, momentum=0.1, affine=True, track_running_stats=True)
        (2): Dropout2d(p=0.2, inplace=False)
        (3): LeakyReLU(negative_slope=0.1, inplace=True)
        (4): Conv2d(32, 32, kernel_size=(3, 3), stride=(1, 1), padding=(1, 1), bias=False)
        (5): BatchNorm2d(32, eps=1e-05, momentum=0.1, affine=True, track_running_stats=True)
        (6): Dropout2d(p=0.2, inplace=False)
        (7): LeakyReLU(negative_slope=0.1, inplace=True)
      )
      (relu): LeakyReLU(negative_slope=0.1, inplace=True)
    )
    (down): down(
      (down): Sequential(
        (0): Conv2d(32, 64, kernel_size=(2, 2), stride=(2, 2), bias=False)
        (1): BatchNorm2d(64, eps=1e-05, momentum=0.1, affine=True, track_running_stats=True)
        (2): LeakyReLU(negative_slope=0.1, inplace=True)
      )
    )
  )
  (block1_1): block(
    (fuse): feature_fuse(
      (conv11): Conv2d(64, 32, kernel_size=(1, 1), stride=(1, 1), bias=False)
      (conv33): Conv2d(64, 32, kernel_size=(3, 3), stride=(1, 1), padding=(1, 1), bias=False)
      (conv33_di): Conv2d(64, 32, kernel_size=(3, 3), stride=(1, 1), padding=(2, 2), dilation=(2, 2), bias=False)
      (norm): BatchNorm2d(32, eps=1e-05, momentum=0.1, affine=True, track_running_stats=True)
    )
    (conv): conv(
      (conv): Sequential(
        (0): Conv2d(32, 32, kernel_size=(3, 3), stride=(1, 1), padding=(1, 1), bias=False)
        (1): BatchNorm2d(32, eps=1e-05, momentum=0.1, affine=True, track_running_stats=True)
        (2): Dropout2d(p=0.2, inplace=False)
        (3): LeakyReLU(negative_slope=0.1, inplace=True)
        (4): Conv2d(32, 32, kernel_size=(3, 3), stride=(1, 1), padding=(1, 1), bias=False)
        (5): BatchNorm2d(32, eps=1e-05, momentum=0.1, affine=True, track_running_stats=True)
        (6): Dropout2d(p=0.2, inplace=False)
        (7): LeakyReLU(negative_slope=0.1, inplace=True)
      )
      (relu): LeakyReLU(negative_slope=0.1, inplace=True)
    )
    (down): down(
      (down): Sequential(
        (0): Conv2d(32, 64, kernel_size=(2, 2), stride=(2, 2), bias=False)
        (1): BatchNorm2d(64, eps=1e-05, momentum=0.1, affine=True, track_running_stats=True)
        (2): LeakyReLU(negative_slope=0.1, inplace=True)
      )
    )
  )
  (block10): block(
    (fuse): feature_fuse(
      (conv11): Conv2d(64, 32, kernel_size=(1, 1), stride=(1, 1), bias=False)
      (conv33): Conv2d(64, 32, kernel_size=(3, 3), stride=(1, 1), padding=(1, 1), bias=False)
      (conv33_di): Conv2d(64, 32, kernel_size=(3, 3), stride=(1, 1), padding=(2, 2), dilation=(2, 2), bias=False)
      (norm): BatchNorm2d(32, eps=1e-05, momentum=0.1, affine=True, track_running_stats=True)
    )
    (conv): conv(
      (conv): Sequential(
        (0): Conv2d(32, 32, kernel_size=(3, 3), stride=(1, 1), padding=(1, 1), bias=False)
        (1): BatchNorm2d(32, eps=1e-05, momentum=0.1, affine=True, track_running_stats=True)
        (2): Dropout2d(p=0.2, inplace=False)
        (3): LeakyReLU(negative_slope=0.1, inplace=True)
        (4): Conv2d(32, 32, kernel_size=(3, 3), stride=(1, 1), padding=(1, 1), bias=False)
        (5): BatchNorm2d(32, eps=1e-05, momentum=0.1, affine=True, track_running_stats=True)
        (6): Dropout2d(p=0.2, inplace=False)
        (7): LeakyReLU(negative_slope=0.1, inplace=True)
      )
      (relu): LeakyReLU(negative_slope=0.1, inplace=True)
    )
    (down): down(
      (down): Sequential(
        (0): Conv2d(32, 64, kernel_size=(2, 2), stride=(2, 2), bias=False)
        (1): BatchNorm2d(64, eps=1e-05, momentum=0.1, affine=True, track_running_stats=True)
        (2): LeakyReLU(negative_slope=0.1, inplace=True)
      )
    )
  )
  (block11): block(
    (fuse): feature_fuse(
      (conv11): Conv2d(64, 32, kernel_size=(1, 1), stride=(1, 1), bias=False)
      (conv33): Conv2d(64, 32, kernel_size=(3, 3), stride=(1, 1), padding=(1, 1), bias=False)
      (conv33_di): Conv2d(64, 32, kernel_size=(3, 3), stride=(1, 1), padding=(2, 2), dilation=(2, 2), bias=False)
      (norm): BatchNorm2d(32, eps=1e-05, momentum=0.1, affine=True, track_running_stats=True)
    )
    (conv): conv(
      (conv): Sequential(
        (0): Conv2d(32, 32, kernel_size=(3, 3), stride=(1, 1), padding=(1, 1), bias=False)
        (1): BatchNorm2d(32, eps=1e-05, momentum=0.1, affine=True, track_running_stats=True)
        (2): Dropout2d(p=0.2, inplace=False)
        (3): LeakyReLU(negative_slope=0.1, inplace=True)
        (4): Conv2d(32, 32, kernel_size=(3, 3), stride=(1, 1), padding=(1, 1), bias=False)
        (5): BatchNorm2d(32, eps=1e-05, momentum=0.1, affine=True, track_running_stats=True)
        (6): Dropout2d(p=0.2, inplace=False)
        (7): LeakyReLU(negative_slope=0.1, inplace=True)
      )
      (relu): LeakyReLU(negative_slope=0.1, inplace=True)
    )
    (down): down(
      (down): Sequential(
        (0): Conv2d(32, 64, kernel_size=(2, 2), stride=(2, 2), bias=False)
        (1): BatchNorm2d(64, eps=1e-05, momentum=0.1, affine=True, track_running_stats=True)
        (2): LeakyReLU(negative_slope=0.1, inplace=True)
      )
    )
  )
  (block12): block(
    (fuse): feature_fuse(
      (conv11): Conv2d(64, 32, kernel_size=(1, 1), stride=(1, 1), bias=False)
      (conv33): Conv2d(64, 32, kernel_size=(3, 3), stride=(1, 1), padding=(1, 1), bias=False)
      (conv33_di): Conv2d(64, 32, kernel_size=(3, 3), stride=(1, 1), padding=(2, 2), dilation=(2, 2), bias=False)
      (norm): BatchNorm2d(32, eps=1e-05, momentum=0.1, affine=True, track_running_stats=True)
    )
    (conv): conv(
      (conv): Sequential(
        (0): Conv2d(32, 32, kernel_size=(3, 3), stride=(1, 1), padding=(1, 1), bias=False)
        (1): BatchNorm2d(32, eps=1e-05, momentum=0.1, affine=True, track_running_stats=True)
        (2): Dropout2d(p=0.2, inplace=False)
        (3): LeakyReLU(negative_slope=0.1, inplace=True)
        (4): Conv2d(32, 32, kernel_size=(3, 3), stride=(1, 1), padding=(1, 1), bias=False)
        (5): BatchNorm2d(32, eps=1e-05, momentum=0.1, affine=True, track_running_stats=True)
        (6): Dropout2d(p=0.2, inplace=False)
        (7): LeakyReLU(negative_slope=0.1, inplace=True)
      )
      (relu): LeakyReLU(negative_slope=0.1, inplace=True)
    )
  )
  (block13): block(
    (fuse): feature_fuse(
      (conv11): Conv2d(64, 32, kernel_size=(1, 1), stride=(1, 1), bias=False)
      (conv33): Conv2d(64, 32, kernel_size=(3, 3), stride=(1, 1), padding=(1, 1), bias=False)
      (conv33_di): Conv2d(64, 32, kernel_size=(3, 3), stride=(1, 1), padding=(2, 2), dilation=(2, 2), bias=False)
      (norm): BatchNorm2d(32, eps=1e-05, momentum=0.1, affine=True, track_running_stats=True)
    )
    (conv): conv(
      (conv): Sequential(
        (0): Conv2d(32, 32, kernel_size=(3, 3), stride=(1, 1), padding=(1, 1), bias=False)
        (1): BatchNorm2d(32, eps=1e-05, momentum=0.1, affine=True, track_running_stats=True)
        (2): Dropout2d(p=0.2, inplace=False)
        (3): LeakyReLU(negative_slope=0.1, inplace=True)
        (4): Conv2d(32, 32, kernel_size=(3, 3), stride=(1, 1), padding=(1, 1), bias=False)
        (5): BatchNorm2d(32, eps=1e-05, momentum=0.1, affine=True, track_running_stats=True)
        (6): Dropout2d(p=0.2, inplace=False)
        (7): LeakyReLU(negative_slope=0.1, inplace=True)
      )
      (relu): LeakyReLU(negative_slope=0.1, inplace=True)
    )
  )
  (block2_2): block(
    (fuse): feature_fuse(
      (conv11): Conv2d(64, 64, kernel_size=(1, 1), stride=(1, 1), bias=False)
      (conv33): Conv2d(64, 64, kernel_size=(3, 3), stride=(1, 1), padding=(1, 1), bias=False)
      (conv33_di): Conv2d(64, 64, kernel_size=(3, 3), stride=(1, 1), padding=(2, 2), dilation=(2, 2), bias=False)
      (norm): BatchNorm2d(64, eps=1e-05, momentum=0.1, affine=True, track_running_stats=True)
    )
    (conv): conv(
      (conv): Sequential(
        (0): Conv2d(64, 64, kernel_size=(3, 3), stride=(1, 1), padding=(1, 1), bias=False)
        (1): BatchNorm2d(64, eps=1e-05, momentum=0.1, affine=True, track_running_stats=True)
        (2): Dropout2d(p=0.2, inplace=False)
        (3): LeakyReLU(negative_slope=0.1, inplace=True)
        (4): Conv2d(64, 64, kernel_size=(3, 3), stride=(1, 1), padding=(1, 1), bias=False)
        (5): BatchNorm2d(64, eps=1e-05, momentum=0.1, affine=True, track_running_stats=True)
        (6): Dropout2d(p=0.2, inplace=False)
        (7): LeakyReLU(negative_slope=0.1, inplace=True)
      )
      (relu): LeakyReLU(negative_slope=0.1, inplace=True)
    )
    (up): up(
      (up): Sequential(
        (0): ConvTranspose2d(64, 32, kernel_size=(2, 2), stride=(2, 2), bias=False)
        (1): BatchNorm2d(32, eps=1e-05, momentum=0.1, affine=True, track_running_stats=True)
        (2): LeakyReLU(negative_slope=0.1)
      )
    )
    (down): down(
      (down): Sequential(
        (0): Conv2d(64, 128, kernel_size=(2, 2), stride=(2, 2), bias=False)
        (1): BatchNorm2d(128, eps=1e-05, momentum=0.1, affine=True, track_running_stats=True)
        (2): LeakyReLU(negative_slope=0.1, inplace=True)
      )
    )
  )
  (block2_1): block(
    (fuse): feature_fuse(
      (conv11): Conv2d(128, 64, kernel_size=(1, 1), stride=(1, 1), bias=False)
      (conv33): Conv2d(128, 64, kernel_size=(3, 3), stride=(1, 1), padding=(1, 1), bias=False)
      (conv33_di): Conv2d(128, 64, kernel_size=(3, 3), stride=(1, 1), padding=(2, 2), dilation=(2, 2), bias=False)
      (norm): BatchNorm2d(64, eps=1e-05, momentum=0.1, affine=True, track_running_stats=True)
    )
    (conv): conv(
      (conv): Sequential(
        (0): Conv2d(64, 64, kernel_size=(3, 3), stride=(1, 1), padding=(1, 1), bias=False)
        (1): BatchNorm2d(64, eps=1e-05, momentum=0.1, affine=True, track_running_stats=True)
        (2): Dropout2d(p=0.2, inplace=False)
        (3): LeakyReLU(negative_slope=0.1, inplace=True)
        (4): Conv2d(64, 64, kernel_size=(3, 3), stride=(1, 1), padding=(1, 1), bias=False)
        (5): BatchNorm2d(64, eps=1e-05, momentum=0.1, affine=True, track_running_stats=True)
        (6): Dropout2d(p=0.2, inplace=False)
        (7): LeakyReLU(negative_slope=0.1, inplace=True)
      )
      (relu): LeakyReLU(negative_slope=0.1, inplace=True)
    )
    (up): up(
      (up): Sequential(
        (0): ConvTranspose2d(64, 32, kernel_size=(2, 2), stride=(2, 2), bias=False)
        (1): BatchNorm2d(32, eps=1e-05, momentum=0.1, affine=True, track_running_stats=True)
        (2): LeakyReLU(negative_slope=0.1)
      )
    )
    (down): down(
      (down): Sequential(
        (0): Conv2d(64, 128, kernel_size=(2, 2), stride=(2, 2), bias=False)
        (1): BatchNorm2d(128, eps=1e-05, momentum=0.1, affine=True, track_running_stats=True)
        (2): LeakyReLU(negative_slope=0.1, inplace=True)
      )
    )
  )
  (block20): block(
    (fuse): feature_fuse(
      (conv11): Conv2d(192, 64, kernel_size=(1, 1), stride=(1, 1), bias=False)
      (conv33): Conv2d(192, 64, kernel_size=(3, 3), stride=(1, 1), padding=(1, 1), bias=False)
      (conv33_di): Conv2d(192, 64, kernel_size=(3, 3), stride=(1, 1), padding=(2, 2), dilation=(2, 2), bias=False)
      (norm): BatchNorm2d(64, eps=1e-05, momentum=0.1, affine=True, track_running_stats=True)
    )
    (conv): conv(
      (conv): Sequential(
        (0): Conv2d(64, 64, kernel_size=(3, 3), stride=(1, 1), padding=(1, 1), bias=False)
        (1): BatchNorm2d(64, eps=1e-05, momentum=0.1, affine=True, track_running_stats=True)
        (2): Dropout2d(p=0.2, inplace=False)
        (3): LeakyReLU(negative_slope=0.1, inplace=True)
        (4): Conv2d(64, 64, kernel_size=(3, 3), stride=(1, 1), padding=(1, 1), bias=False)
        (5): BatchNorm2d(64, eps=1e-05, momentum=0.1, affine=True, track_running_stats=True)
        (6): Dropout2d(p=0.2, inplace=False)
        (7): LeakyReLU(negative_slope=0.1, inplace=True)
      )
      (relu): LeakyReLU(negative_slope=0.1, inplace=True)
    )
    (up): up(
      (up): Sequential(
        (0): ConvTranspose2d(64, 32, kernel_size=(2, 2), stride=(2, 2), bias=False)
        (1): BatchNorm2d(32, eps=1e-05, momentum=0.1, affine=True, track_running_stats=True)
        (2): LeakyReLU(negative_slope=0.1)
      )
    )
    (down): down(
      (down): Sequential(
        (0): Conv2d(64, 128, kernel_size=(2, 2), stride=(2, 2), bias=False)
        (1): BatchNorm2d(128, eps=1e-05, momentum=0.1, affine=True, track_running_stats=True)
        (2): LeakyReLU(negative_slope=0.1, inplace=True)
      )
    )
  )
  (block21): block(
    (fuse): feature_fuse(
      (conv11): Conv2d(192, 64, kernel_size=(1, 1), stride=(1, 1), bias=False)
      (conv33): Conv2d(192, 64, kernel_size=(3, 3), stride=(1, 1), padding=(1, 1), bias=False)
      (conv33_di): Conv2d(192, 64, kernel_size=(3, 3), stride=(1, 1), padding=(2, 2), dilation=(2, 2), bias=False)
      (norm): BatchNorm2d(64, eps=1e-05, momentum=0.1, affine=True, track_running_stats=True)
    )
    (conv): conv(
      (conv): Sequential(
        (0): Conv2d(64, 64, kernel_size=(3, 3), stride=(1, 1), padding=(1, 1), bias=False)
        (1): BatchNorm2d(64, eps=1e-05, momentum=0.1, affine=True, track_running_stats=True)
        (2): Dropout2d(p=0.2, inplace=False)
        (3): LeakyReLU(negative_slope=0.1, inplace=True)
        (4): Conv2d(64, 64, kernel_size=(3, 3), stride=(1, 1), padding=(1, 1), bias=False)
        (5): BatchNorm2d(64, eps=1e-05, momentum=0.1, affine=True, track_running_stats=True)
        (6): Dropout2d(p=0.2, inplace=False)
        (7): LeakyReLU(negative_slope=0.1, inplace=True)
      )
      (relu): LeakyReLU(negative_slope=0.1, inplace=True)
    )
    (up): up(
      (up): Sequential(
        (0): ConvTranspose2d(64, 32, kernel_size=(2, 2), stride=(2, 2), bias=False)
        (1): BatchNorm2d(32, eps=1e-05, momentum=0.1, affine=True, track_running_stats=True)
        (2): LeakyReLU(negative_slope=0.1)
      )
    )
  )
  (block22): block(
    (fuse): feature_fuse(
      (conv11): Conv2d(192, 64, kernel_size=(1, 1), stride=(1, 1), bias=False)
      (conv33): Conv2d(192, 64, kernel_size=(3, 3), stride=(1, 1), padding=(1, 1), bias=False)
      (conv33_di): Conv2d(192, 64, kernel_size=(3, 3), stride=(1, 1), padding=(2, 2), dilation=(2, 2), bias=False)
      (norm): BatchNorm2d(64, eps=1e-05, momentum=0.1, affine=True, track_running_stats=True)
    )
    (conv): conv(
      (conv): Sequential(
        (0): Conv2d(64, 64, kernel_size=(3, 3), stride=(1, 1), padding=(1, 1), bias=False)
        (1): BatchNorm2d(64, eps=1e-05, momentum=0.1, affine=True, track_running_stats=True)
        (2): Dropout2d(p=0.2, inplace=False)
        (3): LeakyReLU(negative_slope=0.1, inplace=True)
        (4): Conv2d(64, 64, kernel_size=(3, 3), stride=(1, 1), padding=(1, 1), bias=False)
        (5): BatchNorm2d(64, eps=1e-05, momentum=0.1, affine=True, track_running_stats=True)
        (6): Dropout2d(p=0.2, inplace=False)
        (7): LeakyReLU(negative_slope=0.1, inplace=True)
      )
      (relu): LeakyReLU(negative_slope=0.1, inplace=True)
    )
    (up): up(
      (up): Sequential(
        (0): ConvTranspose2d(64, 32, kernel_size=(2, 2), stride=(2, 2), bias=False)
        (1): BatchNorm2d(32, eps=1e-05, momentum=0.1, affine=True, track_running_stats=True)
        (2): LeakyReLU(negative_slope=0.1)
      )
    )
  )
  (block3_1): block(
    (fuse): feature_fuse(
      (conv11): Conv2d(128, 128, kernel_size=(1, 1), stride=(1, 1), bias=False)
      (conv33): Conv2d(128, 128, kernel_size=(3, 3), stride=(1, 1), padding=(1, 1), bias=False)
      (conv33_di): Conv2d(128, 128, kernel_size=(3, 3), stride=(1, 1), padding=(2, 2), dilation=(2, 2), bias=False)
      (norm): BatchNorm2d(128, eps=1e-05, momentum=0.1, affine=True, track_running_stats=True)
    )
    (conv): conv(
      (conv): Sequential(
        (0): Conv2d(128, 128, kernel_size=(3, 3), stride=(1, 1), padding=(1, 1), bias=False)
        (1): BatchNorm2d(128, eps=1e-05, momentum=0.1, affine=True, track_running_stats=True)
        (2): Dropout2d(p=0.2, inplace=False)
        (3): LeakyReLU(negative_slope=0.1, inplace=True)
        (4): Conv2d(128, 128, kernel_size=(3, 3), stride=(1, 1), padding=(1, 1), bias=False)
        (5): BatchNorm2d(128, eps=1e-05, momentum=0.1, affine=True, track_running_stats=True)
        (6): Dropout2d(p=0.2, inplace=False)
        (7): LeakyReLU(negative_slope=0.1, inplace=True)
      )
      (relu): LeakyReLU(negative_slope=0.1, inplace=True)
    )
    (up): up(
      (up): Sequential(
        (0): ConvTranspose2d(128, 64, kernel_size=(2, 2), stride=(2, 2), bias=False)
        (1): BatchNorm2d(64, eps=1e-05, momentum=0.1, affine=True, track_running_stats=True)
        (2): LeakyReLU(negative_slope=0.1)
      )
    )
    (down): down(
      (down): Sequential(
        (0): Conv2d(128, 256, kernel_size=(2, 2), stride=(2, 2), bias=False)
        (1): BatchNorm2d(256, eps=1e-05, momentum=0.1, affine=True, track_running_stats=True)
        (2): LeakyReLU(negative_slope=0.1, inplace=True)
      )
    )
  )
  (block30): block(
    (fuse): feature_fuse(
      (conv11): Conv2d(256, 128, kernel_size=(1, 1), stride=(1, 1), bias=False)
      (conv33): Conv2d(256, 128, kernel_size=(3, 3), stride=(1, 1), padding=(1, 1), bias=False)
      (conv33_di): Conv2d(256, 128, kernel_size=(3, 3), stride=(1, 1), padding=(2, 2), dilation=(2, 2), bias=False)
      (norm): BatchNorm2d(128, eps=1e-05, momentum=0.1, affine=True, track_running_stats=True)
    )
    (conv): conv(
      (conv): Sequential(
        (0): Conv2d(128, 128, kernel_size=(3, 3), stride=(1, 1), padding=(1, 1), bias=False)
        (1): BatchNorm2d(128, eps=1e-05, momentum=0.1, affine=True, track_running_stats=True)
        (2): Dropout2d(p=0.2, inplace=False)
        (3): LeakyReLU(negative_slope=0.1, inplace=True)
        (4): Conv2d(128, 128, kernel_size=(3, 3), stride=(1, 1), padding=(1, 1), bias=False)
        (5): BatchNorm2d(128, eps=1e-05, momentum=0.1, affine=True, track_running_stats=True)
        (6): Dropout2d(p=0.2, inplace=False)
        (7): LeakyReLU(negative_slope=0.1, inplace=True)
      )
      (relu): LeakyReLU(negative_slope=0.1, inplace=True)
    )
    (up): up(
      (up): Sequential(
        (0): ConvTranspose2d(128, 64, kernel_size=(2, 2), stride=(2, 2), bias=False)
        (1): BatchNorm2d(64, eps=1e-05, momentum=0.1, affine=True, track_running_stats=True)
        (2): LeakyReLU(negative_slope=0.1)
      )
    )
  )
  (block31): block(
    (fuse): feature_fuse(
      (conv11): Conv2d(384, 128, kernel_size=(1, 1), stride=(1, 1), bias=False)
      (conv33): Conv2d(384, 128, kernel_size=(3, 3), stride=(1, 1), padding=(1, 1), bias=False)
      (conv33_di): Conv2d(384, 128, kernel_size=(3, 3), stride=(1, 1), padding=(2, 2), dilation=(2, 2), bias=False)
      (norm): BatchNorm2d(128, eps=1e-05, momentum=0.1, affine=True, track_running_stats=True)
    )
    (conv): conv(
      (conv): Sequential(
        (0): Conv2d(128, 128, kernel_size=(3, 3), stride=(1, 1), padding=(1, 1), bias=False)
        (1): BatchNorm2d(128, eps=1e-05, momentum=0.1, affine=True, track_running_stats=True)
        (2): Dropout2d(p=0.2, inplace=False)
        (3): LeakyReLU(negative_slope=0.1, inplace=True)
        (4): Conv2d(128, 128, kernel_size=(3, 3), stride=(1, 1), padding=(1, 1), bias=False)
        (5): BatchNorm2d(128, eps=1e-05, momentum=0.1, affine=True, track_running_stats=True)
        (6): Dropout2d(p=0.2, inplace=False)
        (7): LeakyReLU(negative_slope=0.1, inplace=True)
      )
      (relu): LeakyReLU(negative_slope=0.1, inplace=True)
    )
    (up): up(
      (up): Sequential(
        (0): ConvTranspose2d(128, 64, kernel_size=(2, 2), stride=(2, 2), bias=False)
        (1): BatchNorm2d(64, eps=1e-05, momentum=0.1, affine=True, track_running_stats=True)
        (2): LeakyReLU(negative_slope=0.1)
      )
    )
  )
  (block40): block(
    (fuse): feature_fuse(
      (conv11): Conv2d(256, 256, kernel_size=(1, 1), stride=(1, 1), bias=False)
      (conv33): Conv2d(256, 256, kernel_size=(3, 3), stride=(1, 1), padding=(1, 1), bias=False)
      (conv33_di): Conv2d(256, 256, kernel_size=(3, 3), stride=(1, 1), padding=(2, 2), dilation=(2, 2), bias=False)
      (norm): BatchNorm2d(256, eps=1e-05, momentum=0.1, affine=True, track_running_stats=True)
    )
    (conv): conv(
      (conv): Sequential(
        (0): Conv2d(256, 256, kernel_size=(3, 3), stride=(1, 1), padding=(1, 1), bias=False)
        (1): BatchNorm2d(256, eps=1e-05, momentum=0.1, affine=True, track_running_stats=True)
        (2): Dropout2d(p=0.2, inplace=False)
        (3): LeakyReLU(negative_slope=0.1, inplace=True)
        (4): Conv2d(256, 256, kernel_size=(3, 3), stride=(1, 1), padding=(1, 1), bias=False)
        (5): BatchNorm2d(256, eps=1e-05, momentum=0.1, affine=True, track_running_stats=True)
        (6): Dropout2d(p=0.2, inplace=False)
        (7): LeakyReLU(negative_slope=0.1, inplace=True)
      )
      (relu): LeakyReLU(negative_slope=0.1, inplace=True)
    )
    (up): up(
      (up): Sequential(
        (0): ConvTranspose2d(256, 128, kernel_size=(2, 2), stride=(2, 2), bias=False)
        (1): BatchNorm2d(128, eps=1e-05, momentum=0.1, affine=True, track_running_stats=True)
        (2): LeakyReLU(negative_slope=0.1)
      )
    )
  )
  (final1): Conv2d(32, 1, kernel_size=(1, 1), stride=(1, 1))
  (final2): Conv2d(32, 1, kernel_size=(1, 1), stride=(1, 1))
  (final3): Conv2d(32, 1, kernel_size=(1, 1), stride=(1, 1))
  (final4): Conv2d(32, 1, kernel_size=(1, 1), stride=(1, 1))
  (final5): Conv2d(32, 1, kernel_size=(1, 1), stride=(1, 1))
  (fuse): Conv2d(5, 1, kernel_size=(1, 1), stride=(1, 1))
)

dataset2
  0%|                                                                                                                                  | 0/1251 [00:00<?, ?it/s]TRAIN (1) | Loss: 0.6838 | AUC 0.4765 F1 0.1346 Acc 0.5929  Sen 0.3453 Spe 0.6178 Pre 0.0836 IOU 0.0721 |B 7.39 D 1.14 |:   0%|        | 0/1251 [00:07<?, ?it/s]TRAIN (1) | Loss: 0.6838
…
